model.pth (torch, 5108 bytes, 6 tensors)

l1.weight f4 [8, 49]
0.12835096 0.32042426 -0.18360262 0.2920121 -0.29502603 0.42240298 -0.15599006 0.21781987
0.41156894 0.32552078 0.35051084 0.28648892 -0.09654809 -0.16875857 -0.183823 0.28687608
-0.23730648 0.016224926 0.1472032 0.42202637 0.28060722 -0.18178344 0.39412037 -0.04023563
0.1417805 -0.27498904 0.22622353 0.3206471 0.46518043 0.4720329 -0.25642902 0.32489493
0.22212605 0.12127891 0.3822232 0.11293527 0.23813933 0.106897585 -0.11923279 0.41945398
-0.21001239 0.16391373 -0.108006604 0.17289303 -0.2899136 -0.24365686 0.32042944 0.3956192
0.3988968 -0.03749221 0.0926417 0.06291658 0.10244798 0.12922592 -0.035546765 0.0057486296
0.09292417 -0.11422063 -0.044336557 0.011246061 -0.12607794 -0.049673438 -0.14081216 -0.07906439
0.09459826 0.03418228 -0.006559059 0.024445668 0.027741045 -0.10868989 -0.082657635 -0.1105926
-0.046531834 -0.011799257 -0.013326819 0.05726859 0.0061376393 -0.12471174 0.134275 -0.07481146
-0.103677176 0.031025141 -0.12767477 0.0018675029 0.122312315 0.07809144 0.08614653 0.0541175
-0.14284638 0.12077187 -0.047560543 -0.039330333 0.072109655 0.1277964 -0.065804094 -0.08032426
-0.10715806 -0.11685942 0.46875253 0.05329725 0.35755128 0.23529139 0.24886191 -0.25673676
0.2587832 0.24513638 -0.028378779 -0.0007726422 0.024089292 -0.015417523 0.4488489 0.30483925
0.31651065 0.03500083 0.27643025 0.39628533 0.13569304 -0.28979245 0.20120329 0.36883786
-0.09848774 0.16556348 0.21016832 0.31068084 -0.1257899 0.24385805 -0.08485887 -0.08626848
0.5509307 0.35890582 0.28135583 0.53646415 0.4185947 0.3694301 0.2218442 0.5492148
0.36958343 -0.1953061 0.25278902 0.09512186 0.39577645 0.5077947 0.30502644 0.39744428
-0.22197458 0.39457026 0.26524028 0.44813067 0.09694061 -0.1935316 0.27124903 -0.122009546
-0.2431015 -0.34397593 0.45387366 -0.1109835 0.2189958 -0.05109858 0.1922009 0.12823036
0.16609281 0.40254724 -0.16777447 -0.18750164 0.23015192 -0.17599614 -0.10798708 0.39487457
-0.21077383 -0.34027955 0.0052321744 0.23341538 0.07250354 -0.030872583 0.42762306 -0.05734981
-0.016169593 -0.11821112 0.4328666 0.2932009 0.3352432 0.42102292 0.45252115 0.20742345
0.4380929 -0.31180677 -0.25321716 -0.24234861 0.043937773 -0.29065296 0.30458248 -0.07732174
-0.16951945 0.028019352 0.3810293 0.17127478 0.24081671 -0.12881304 -0.09129314 0.2817416
-0.28378823 -0.28101614 -0.21856599 0.35539106 0.020433934 0.18751198 -0.02420776 0.027202817
0.23651636 0.060676936 0.37281275 0.06293899 -0.15848671 0.10266304 -0.2741877 -0.16986991
0.27408183 -0.21975702 -0.14506698 -0.049662866 0.3007913 0.20292094 -0.050959833 0.342221
-0.06176567 -0.10116084 -0.27299213 0.16203801 0.44906816 0.48722312 0.22520946 0.17097215
0.39783493 0.4008917 -0.24187855 -0.24169323 -0.16607909 -0.08898715 -0.2609265 0.42218885
-0.1194606 -0.035854135 -0.07232496 0.45704347 0.28254822 0.31657696 -0.062377773 0.14905667
0.30537418 0.35008618 -0.13119751 0.41214526 0.22398518 -0.03716064 -0.0041273865 0.2363664
00000000: 6f6e 033e a60e a43e 5302 3cbe 9c82 953e
00000010: a70d 97be 3445 d83e dcbb 1fbe 2c0c 5f3e
00000020: 2ab9 d23e a9aa a63e 2876 b33e adae 923e
00000030: 01bb c5bd 0ccf 2cbe 193c 3cbe 6ce1 923e
00000040: 7800 73be 23ea 843c 70bc 163e d713 d83e
00000050: c0ab 8f3e 7025 3abe 25ca c93e 1ece 24bd
00000060: e82e 113e 5dcb 8cbe 24a7 673e db2b a43e
00000070: 212c ee3e 4cae f13e aa4a 83be a158 a63e
00000080: 0375 633e 1461 f83d c2b2 c33e 9b4a e73d
00000090: ccda 733e 1fed da3d 5230 f4bd acc2 d63e
000000a0: 7d0d 57be 00d9 273e 9132 ddbd df0a 313e
000000b0: 8e6f 94be 2f81 79be 540f a43e 9a8e ca3e
000000c0: 343c cc3e 6e91 19bd eeba bd3d 68da 803d
000000d0: 3fd0 d13d cd53 043e 7c99 11bd 005f bc3b
000000e0: 074f be3d 81ec e9bd 409a 35bd 6641 383c
000000f0: 931a 01be 6076 4bbd 1031 10be 83ec a1bd
00000100: bcbc c13d b802 0c3d 60ed d6bb 4842 c83c
00000110: 3041 e33c ce98 debd 6848 a9bd 607e e2bd
00000120: 2a98 3ebd ac51 41bc bb58 5abc 7892 6a3d
00000130: 401e c93b de68 ffbd 637f 093e c036 99bd
00000140: b354 d4bd 7028 fe3c 2dbd 02be 00c7 f43a
00000150: e17e fa3d 68ee 9f3d 986d b03d 50aa 5d3d
00000160: 5246 12be 3e57 f73d d8ce 42bd d818 21bd
00000170: 3aae 933d 0fdd 023e 4cc4 86bd 0c81 a4bd
00000180: af75 dbbd fe53 efbd 5500 f03e 384e 5a3d
00000190: f610 b73e 3af0 703e a8d5 7e3e 0073 83be
000001a0: 3b7f 843e 0805 7b3e 9d7a e8bc 248b 4aba
000001b0: e856 c53c c799 7cbc 86cf e53e e413 9c3e
000001c0: af0d a23e 085d 0f3d 4488 8d3e e9e5 ca3e
000001d0: 1ef3 0a3e ad5f 94be 3c08 4e3e 51d8 bc3e
000001e0: f1b3 c9bd 7989 293e 5d36 573e 8f11 9f3e
000001f0: 11cf 00be edb5 793e 7dca adbd 87ad b0bd
00000200: cb09 0d3f 81c2 b73e df0d 903e b755 093f
00000210: 0b52 d63e f125 bd3e 202b 633e 5799 0c3f
00000220: 0a3a bd3e 53fe 47be 906d 813e 40cf c23d
00000230: 36a3 ca3e d5fe 013f 6d2c 9c3e d17d cb3e
00000240: 4e4d 63be 1d05 ca3e 93cd 873e 6271 e53e
00000250: cc88 c63d 262d 46be 27e1 8a3e 24e0 f9bd
00000260: 9aef 78be 9d1d b0be 2162 e83e 514b e3bd
00000270: 6f40 603e bf4c 51bd 50d0 443e d24e 033e
00000280: 3c14 2a3e ac1a ce3e 12cd 2bbe 6e00 40be
00000290: f2ac 6b3e 5538 34be 5528 ddbd 002d ca3e
000002a0: 18d5 57be 1f39 aebe a972 ab3b 7104 6f3e
000002b0: bc7c 943d 80e8 fcbc 69f1 da3e a2e7 6abd
000002c0: 1876 84bc ac18 f2bd b1a0 dd3e 6e1e 963e
000002d0: ffa4 ab3e 5190 d73e dab0 e73e d066 543e
000002e0: b64d e03e 23a5 9fbe aea5 81be 3c2a 78be
000002f0: 18f8 333d 77d0 94be 3cf2 9b3e dc5a 9ebd
00000300: 8296 2dbe d788 e53c 4616 c33e a862 2f3e
00000310: a898 763e 91e7 03be e6f7 babd 6f40 903e
00000320: b14c 91be 59e1 8fbe c3cf 5fbe d1f5 b53e
00000330: 1165 a73c 2403 403e 5a4f c6bc 71d8 de3c
00000340: 5831 723e 6188 783d 50e1 be3e 28e6 803d
00000350: 574a 22be 0041 d23d 5562 8cbe 61f2 2dbe
00000360: 7454 8c3e fc07 61be 708c 14be 4a6b 4bbd
00000370: 5101 9a3e 82ca 4f3e 42bb 50bd 9737 af3e
00000380: 00fe 7cbd 6a2d cfbd a0c5 8bbe 4bed 253e
00000390: 43ec e53e 4f75 f93e 4f9d 663e 5313 2f3e
000003a0: 05b1 cb3e ad41 cd3e 03af 77be 6e7e 77be
000003b0: a310 2abe e53e b6bd 2998 85be 2329 d83e
000003c0: c2a7 f4bd c9db 12bd 1c1f 94bd 9a01 ea3e
000003d0: 29aa 903e 6016 a23e d67f 7fbd 50a2 183e
000003e0: 015a 9c3e 7f3e b33e a458 06be b404 d33e
000003f0: 5f5c 653e c135 18bd 073f 87bb 090a 723e

l1.bias f4 [8]
0.46100107 -0.15730964 0.4321004 0.2806452 0.29732287 0.44209233 0.557554 0.4751444
00000000: 5508 ec3e c715 21be 433c dd3e bab0 8f3e
00000010: b43a 983e ed59 e23e dcbb 0e3f 2046 f33e

l2.weight f4 [8, 8]
0.30999404 -0.029845715 0.09683519 0.25624153 0.34288138 0.058530133 0.52505195 -0.19424917
-0.4379805 0.26793465 0.43268004 -0.39566705 -0.19428246 0.7086875 -0.24455129 0.65957433
0.21056946 -0.14283675 0.6030567 0.7027152 0.56382686 0.63829017 0.025856733 -0.68083435
0.17935753 -0.21387772 0.008866966 -0.12585111 0.06431655 -0.19906327 -0.11174467 -0.01948619
-0.554279 0.11260339 0.5877191 -0.19698852 -0.4715479 0.5780837 -0.35021177 0.5358435
0.8061564 -0.06356898 -0.74440557 -0.30859563 -0.5531308 0.26982832 0.4107051 0.30889344
0.25401452 -0.09166163 -0.34782752 -0.32318646 -0.10307205 0.20840254 -0.21605279 -0.014641345
0.03492403 0.12317464 -0.17618525 0.17414781 -0.010710865 0.23368642 -0.22218642 -0.04415077
00000000: 8ab7 9e3e 007f f4bc 8751 c63d 1732 833e
00000010: 268e af3e 4bbd 6f3d ce69 063f 41e9 46be
00000020: fb3e e0be bb2e 893e 3d88 dd3e df94 cabe
00000030: fbf1 46be 8b6c 353f a76b 7abe ddd9 283f
00000040: 859f 573e cc43 12be ed61 1a3f 25e5 333f
00000050: f556 103f fc66 233f 80d1 d33c 294b 2ebf
00000060: 80a9 373e c302 5bbe c046 113c 1ddf 00be
00000070: 65b8 833d 3ed7 4bbe 64da e4bd 81a1 9fbc
00000080: 3be5 0dbf 9b9c e63d c274 163f 5cb7 49be
00000090: ba6e f1be 4bfd 133f f54e b3be 0a2d 093f
000000a0: 4460 4e3f 7430 82bd 5d91 3ebf 3f00 9ebe
000000b0: fb99 0dbf f026 8a3e f047 d23e 4827 9e3e
000000c0: 310e 823e 18b9 bbbd 7316 b2be b278 a5be
000000d0: 7017 d3bd 7a67 553e f13c 5dbe 40e2 6fbc
000000e0: 800c 0f3d fc42 fc3d e869 34be ce53 323e
000000f0: a07c 2fbc 7e4b 6f3e d684 63be 70d7 34bd

l2.bias f4 [8]
0.025324155 0.05358672 0.14381844 -0.15560539 0.50748503 0.40282223 -0.21250989 -0.31861734
00000000: 9a74 cf3c c07d 5b3d 2445 133e 0557 1fbe
00000010: 8aea 013f b73e ce3e 319c 59be d021 a3be

l3.weight f4 [3, 8]
0.53275865 -0.5175957 -0.6152181 -0.35667196 -0.4038406 0.6515116 -0.16780633 0.11164752
0.5283896 -0.4538606 0.629282 -0.200324 -0.49867705 -0.5856118 -0.2568409 -0.24734017
-0.58411455 0.61668134 -0.25732782 0.20969707 0.7041376 -0.4776025 -0.33905828 0.21617565
00000000: df62 083f 2781 04bf ef7e 1dbf b59d b6be
00000010: 32c4 cebe 77c9 263f 6cd5 2bbe 74a7 e43d
00000020: 8a44 073f 6b60 e8be a018 213f bc21 4dbe
00000030: 9952 ffbe a8ea 15bf a780 83be be46 7dbe
00000040: 8888 15bf d4de 1d3f 79c0 83be d4ba 563e
00000050: 5d42 343f 5188 f4be 0c99 adbe 265d 5d3e

l3.bias f4 [3]
0.17527415 -0.27090102 0.088948056
00000000: 117b 333e 8ab3 8abe 662a b63d
