model.pth (torch, 3828 bytes, 6 tensors)

l1.weight f4 [8, 33]
0.2040443 -0.3339982 0.12714277 -0.26055193 0.38644347 0.39571407 0.38923284 0.0010667641
0.12275693 0.33501795 0.09773492 0.36013204 0.047153022 -0.35531232 -0.26257873 -0.18987529
0.25459898 0.45474872 0.15214762 -0.09841981 0.03609856 0.38215956 0.4354223 0.34359837
0.13433303 -0.2562073 0.16487771 -0.20079522 0.3130342 -0.35835204 0.36177257 0.4646197
0.119172856 0.16376814 0.0013096032 -0.045958355 -0.105590865 -0.04920718 -0.13384533 -0.025372675
-0.009755916 -0.112223625 0.06959468 -0.055519342 -0.11961325 0.036244806 0.050448272 0.033065047
-0.1423781 0.0075454307 -0.0013968763 0.059907816 -0.121649444 -0.09069272 -0.14054282 -0.011430302
0.060789373 0.029123764 -0.0043254206 -0.014438316 0.1558747 0.0014111996 0.10129397 0.024042547
-0.19123118 -0.14285149 0.27284887 -0.2115322 -0.12079433 -0.20952222 -0.18489504 0.15270145
-0.057040077 0.34575185 0.19622013 0.2089598 -0.11690361 -0.22003977 0.22186325 0.030303674
-0.29482284 -0.033968557 0.263033 0.1939122 -0.14076076 -0.25539938 0.05775995 0.3873351
0.1260252 0.4034531 0.4226389 -0.19198996 -0.43917647 -0.020265132 0.3783483 -0.08434575
-0.18471316 0.2766199 0.28931895 -0.020155743 -0.08828249 0.41993025 -0.075595744 0.4154526
0.014487639 0.17585409 -0.18655841 -0.16469571 0.0947082 0.33819053 0.32950592 -0.06495977
-0.1250966 0.011666653 -0.24741407 -0.1689328 0.10266608 0.40468994 0.059744705 -0.008443975
-0.08402901 -0.21839668 -0.09348645 -0.3341037 -0.31361303 0.4070529 -0.19570197 -0.16671078
-0.1938055 0.3239906 0.15997595 0.02567253 0.17199668 -0.04399 -0.07858669 -0.13346899
0.13995391 0.14373514 0.15210825 0.11448305 0.17145813 -0.073643774 -0.042703956 -0.07674631
-0.09113194 -0.105707765 0.16440463 -0.12943211 -0.08386611 -0.09523753 -0.010357559 0.076678455
0.055089653 -0.07137419 -0.08578541 0.1524902 -0.043594882 0.09819293 -0.09099871 -0.16954166
-0.074274406 -0.051068 -0.06824454 0.17130426 0.15886608 0.2309183 0.24548706 -0.22393613
0.34779385 -0.16026686 0.30994692 -0.017592818 0.17507899 0.3260632 0.19980429 0.097278126
-0.20054354 -0.0032292437 0.32749587 0.27743706 0.44628334 0.027952285 0.078071214 -0.079146154
0.5355086 0.2839741 0.26354894 0.4060398 0.2094979 0.19695106 0.24979354 -0.16413765
0.38700256 0.15878035 0.35520706 -0.17642574 0.1077542 0.14567663 -0.08497156 0.211713
-0.25520214 0.34273916 -0.4537997 -0.3410733 0.5168156 0.19641206 0.37922463 -0.14907652
0.396495 -0.14468233 -0.18274018 0.5129626 0.2138351 0.65869963 0.01180506 0.070548825
-0.2320397 0.64259917 0.031857446 -0.0569314 0.07577787 -0.14226541 -0.2002603 0.14547084
-0.02149494 0.4543003 -0.25005522 0.4762995 -0.47022533 -0.16065045 -0.13379511 -0.05535753
0.28770086 0.47015855 0.4865699 0.21114923 -0.2625585 0.37996238 0.34529385 0.22200549
0.06818958 0.19331363 0.25172263 -0.15168153 0.42606056 0.43733394 0.40541923 -0.14316937
0.22746603 0.14425193 0.4923492 0.05694323 -0.047082208 -0.32881215 -0.18885604 -0.27690947
00000000: fdf0 503e d001 abbe b731 023e 1067 85be
00000010: ebdb c53e 099b ca3e 8749 c73e aad2 8b3a
00000020: fc67 fb3d 7987 ab3e 3f29 c83d 3a63 b83e
00000030: 8723 413d 7feb b5be b870 86be ab6e 42be
00000040: cc5a 823e d3d4 e83e 96cc 1b3e 5390 c9bd
00000050: 15dc 133d 6baa c33e acef de3e 20ec af3e
00000060: 998e 093e 9a2d 83be b4d5 283e 439d 4dbe
00000070: 0546 a03e eb79 b7be 413a b93e a2e2 ed3e
00000080: e610 f43d d6b2 273e fea6 ab3a d43e 3cbd
00000090: 0640 d8bd 788d 49bd c00e 09be 5bda cfbc
000000a0: 47d7 1fbc 80d5 e5bd a887 8e3d 4068 63bd
000000b0: cbf7 f4bd 6f75 143d d9a2 4e3d 376f 073d
000000c0: 91cb 11be a93f f73b 6417 b7ba e661 753d
000000d0: 5823 f9bd 1bbd b9bd 75ea 0fbe 2946 3bbc
000000e0: 47fe 783d f694 ee3c 42bc 8dbb b08e 6cbc
000000f0: 9e9d 1f3e 00f8 b83a 3773 cf3d e0f4 c43c
00000100: 1bd2 43be a947 12be d9b2 8b3e e69b 58be
00000110: 0563 f7bd fe8c 56be 2055 3dbe c55d 1c3e
00000120: dba2 69bd 6306 b13e eeed 483e 8ff9 553e
00000130: 296b efbd 1b52 61be 1f30 633e 693f f83c
00000140: 05f3 96be 9d22 0bbd 43ac 863e eb90 463e
00000150: 9723 10be b5c3 82be b395 6c3d c950 c63e
00000160: c00c 013e 6891 ce3e 2064 d83e 0499 44be
00000170: bddb e0be 1003 a6bc deb6 c13e 77bd acbd
00000180: 7225 3dbe 20a1 8d3e 9d21 943e a81d a5bc
00000190: 73cd b4bd 1901 d73e f1d1 9abd 34b6 d43e
000001a0: 905d 6d3c 1813 343e 2b09 3fbe fea5 28be
000001b0: 5ff6 c13d 4f27 ad3e 00b5 a83e a109 85bd
000001c0: 5319 00be 7d25 3f3c 1d5a 7dbe b8fc 2cbe
000001d0: 9842 d23d 8533 cf3e ddb6 743d 9958 0abc
000001e0: 6717 acbd 61a3 5fbe d375 bfbd a40f abbe
000001f0: e391 a0be 3d69 d03e 1966 48be 3bb6 2abe
00000200: f374 46be 19e2 a53e bcd0 233e 334f d23c
00000210: e61f 303e dc2e 34bd 0ff2 a0bd 18ac 08be
00000220: 1450 0f3e 4e2f 133e 44c2 1b3e 1776 ea3d
00000230: b892 2f3e 8cd2 96bd 58ea 2ebd 2b2d 9dbd
00000240: 62a3 babd 507d d8bd b059 283e da89 04be
00000250: ffc1 abbd e50b c3bd c0b2 29bc 9809 9d3d
00000260: b0a5 613d a22c 92bd 43b0 afbd 6426 1c3e
00000270: 8c90 32bd 6019 c93d 885d babd 549c 2dbe
00000280: 2e1d 98bd ae2c 51bd cbc3 8bbd 626a 2f3e
00000290: caad 223e d975 6c3e f660 7b3e 834f 65be
000002a0: 0912 b23e ff1c 24be 5db1 9e3e d01e 90bc
000002b0: e847 333e c1f1 a63e 7f99 4c3e c139 c73d
000002c0: 495b 4dbe b8a1 53bb 8aad a73e 3b0c 8e3e
000002d0: 407f e43e 31fc e43c cde3 9f3d 6117 a2bd
000002e0: 1717 093f 0e65 913e e3ef 863e 73e4 cf3e
000002f0: 9e86 563e 8aad 493e e1c9 7f3e b313 28be
00000300: 3325 c63e 5197 223e b3dd b53e f3a8 34be
00000310: 3cae dc3d 412c 153e 9205 aebd 4bcb 583e
00000320: dba9 82be 827b af3e 6f58 e8be 29a1 aebe
00000330: 074e 043f 3e20 493e bb29 c23e 84a7 18be
00000340: 6501 cb3e 9b27 14be 3e20 3bbe 8451 033f
00000350: 97f7 5a3e 8aa0 283f 036a 413c e77b 903d
00000360: d19b 6dbe 6181 243f f47c 023d e630 69bd
00000370: 6e31 9b3d 06ae 11be 0911 4dbe 4ff6 143e
00000380: 2816 b0bc 0d9a e83e 3d07 80be 87dd f33e
00000390: 60c1 f0be 8d81 24be 9601 09be 94be 62bd
000003a0: 874d 933e 9fb8 f03e b11f f93e 8137 583e
000003b0: 116e 86be 6e8a c23e 5bca b03e 6855 633e
000003c0: fba6 8b3d 02f4 453e cae1 803e 6752 1bbe
000003d0: 9c24 da3e 3cea df3e 1c93 cf3e fe9a 12be
000003e0: dbec 683e c7b6 133e 3215 fc3e 4e3d 693d
000003f0: 46d9 40bd 115a a8be 7a63 41be 14c7 8dbe

l1.bias f4 [8]
0.48909736 0.038738936 0.30954522 0.3833407 -0.15271054 0.40287042 0.35368857 0.32705653
00000000: f86a fa3e b8ac 1e3d b67c 9e3e 3b45 c43e
00000010: 2760 1cbe 0845 ce3e ab16 b53e f473 a73e

l2.weight f4 [8, 8]
-0.42198274 -0.25458494 -0.28838152 -0.34971198 0.09928379 0.5500106 0.5143712 0.48221546
0.40856543 -0.14282885 -0.3007475 0.5009951 -0.4488795 -0.26644364 -0.17374963 0.20892571
0.48905784 -0.08206654 -0.26876444 0.6243035 -0.41176254 -0.45026407 -0.23159075 0.44349894
0.43300384 -0.21381219 0.47952613 -0.32319513 -0.15553962 0.53508896 -0.28676912 -0.15763421
0.029312702 0.16893873 -0.3417126 0.57955503 -0.32022455 0.1570704 0.34538028 0.70316136
0.37228942 -0.0329789 0.54140985 0.027122412 -0.04852232 0.50220346 -0.61775434 -0.36037472
-0.24004397 -0.24539468 0.55338633 -0.5658101 0.15997179 0.59631217 0.20679626 0.54168504
0.7025203 -0.13503334 0.39205882 0.38679084 0.23762368 0.13739693 -0.3643016 0.15138341
00000000: 1f0e d8be f558 82be bea6 93be 730d b3be
00000010: 4d55 cb3d 7fcd 0c3f d5ad 033f f2e4 f63e
00000020: 7d2f d13e ba41 12be 94fb 99be 3741 003f
00000030: 89d3 e5be 4d6b 88be 6ceb 31be 9ff0 553e
00000040: ca65 fa3e 8112 a8bd 7e9b 89be 5bd2 1f3f
00000050: 8ad2 d2be 0389 e6be 2026 6dbe 4b12 e33e
00000060: aeb2 dd3e 95f1 5abe 7384 f53e d579 a5be
00000070: c745 1fbe 97fb 083f 67d3 92be dd6a 21be
00000080: 3121 f03c 46fe 2c3e f4f4 aebe b85d 143f
00000090: 79f4 a3be 10d7 203e afd5 b03e 6202 343f
000000a0: b89c be3e e214 07bd d699 0a3f d22f de3c
000000b0: 57bf 46bd 6890 003f 2625 1ebf 0983 b8be
000000c0: 16ce 75be be48 7bbe baaa 0d3f eed8 10bf
000000d0: a5cf 233e eaa7 183f 66c2 533e dfab 0a3f
000000e0: 5fd8 333f 2e46 0abe efbb c83e 7309 c63e
000000f0: 9f53 733e c8b1 0c3e bd85 babe 4104 1b3e

l2.bias f4 [8]
0.5294246 0.1998423 -0.039057173 0.005279623 0.30378026 0.03923505 0.60251874 0.1477007
00000000: 5f88 073f 76a3 4c3e 6afa 1fbd b000 ad3b
00000010: 1689 9b3e efb4 203d ab3e 1a3f da3e 173e

l3.weight f4 [3, 8]
-0.5124054 0.5233251 0.6558404 -0.603023 0.5591689 -0.55268234 -0.62174034 0.5489042
-0.5931552 -0.56883234 -0.41393003 0.6937054 -0.31418604 0.725705 0.15769053 0.45890698
0.61242884 -0.60577637 -0.4095777 -0.3640625 0.74229014 -0.69795436 0.20268139 -0.3160957
00000000: 002d 03bf a2f8 053f 28e5 273f b75f 1abf
00000010: b125 0f3f 977c 0dbf 602a 1fbf fc84 0c3f
00000020: 05d9 17bf ff9e 11bf a3ee d3be ad96 313f
00000030: fedc a0be cec7 393f a079 213e dbf5 ea3e
00000040: 23c8 1c3f 2914 1bbf 2bb4 d1be 6666 babe
00000050: ba06 3e3f 23ad 32bf b68b 4f3e 4cd7 a1be

l3.bias f4 [3]
-0.0824592 -0.2775867 -0.051237684
00000000: 5ee0 a8bd d81f 8ebe 9bde 51bd
